…
n","model.add(Dropout(0.02))\n","model.add(Dense(64, activation='relu'))\n","model.add(Dropout(0.02))\n","model.add(Dense(32, activation='relu'))\n","model.add(Dropout(0.02))\n","model.add(Dense(1, activation='sigmoid'))\n","print(model.summary())"],"execution_count":null,"outputs":[{"output_type":"stream","name":"stdout","text":["Model: \"sequential_5\"\n","_________________________________________________________________\n","Layer (type)                 Output Shape              Param #   \n","=================================================================\n","dense_40 (Dense)             (None, 128)               4096      \n","_________________________________________________________________\n","dropout_35 (Dropout)         (None, 128)               0         \n","_________________________________________________________________\n","dense_41 (Dense)             (None, 256)               33024     \n","_________________________________________________________________\n","dropout_36 (Dropout)         (None, 256)               0         \n","_________________________________________________________________\n","dense_42 (Dense)             (None, 512)               131584    \n","_________________________________________________________________\n","dropout_37 (Dropout)         (None, 512)               0         \n","_________________________________________________________________\n","dense_43 (Dense)             (None, 256)               131328    \n","_________________________________________________________________\n","dropout_38 (Dropout)         (None, 256)               0         \n","_________________________________________________________________\n","dense_44 (Dense)             (None, 128)               32896     \n","_________________________________________________________________\n","dropout_39 (Dropout)         (None, 128)               0         \n","_________________________________________________________________\n","dense_45 (Dense)             (None, 64)                8256      \n","_________________________________________________________________\n","dropout_40 (Dropout)         (None, 64)                0         \n","_________________________________________________________________\n","dense_46 (Dense)             (None, 32)                2080      \n","_________________________________________________________________\n","dropout_41 (Dropout)         (None, 32)                0         \n","_________________________________________________________________\n","dense_47 (Dense)             (None, 1)                 33        \n","=================================================================\n","Total params: 343,297\n","Trainable params: 343,297\n","Non-trainable params: 0\n","_________________________________________________________________\n","None\n"]}]},{"cell_type":"code","metadata":{"colab":{"base_uri":"https://localhost:8080/"},"id":"IDCj3IEJ_MHQ","executionInfo":{"status":"ok","timestamp":163601535
…
